…
Average actions of items: 2.4039037241048975
The number of inters: 40150
The sparsity of the dataset: 99.99389670773579%
Thu 08 Aug 2024 09:47:42 INFO 
====Testing====
clothing
The number of users: 39387
Average actions of users: 1.0457511361616778
The number of items: 16803
Average actions of items: 2.451288460393977
The number of inters: 41189
The sparsity of the dataset: 99.99377640221293%
Thu 08 Aug 2024 09:47:50 INFO 

=================================


Thu 08 Aug 2024 09:47:50 INFO =========1/3: Parameters:['seed', 'cl_loss']=(999, 0.001)=======
Thu 08 Aug 2024 09:48:26 INFO MGCN(
  (user_embedding): Embedding(39387, 64)
  (item_id_embedding): Embedding(23033, 64)
  (image_embedding): Embedding(23033, 4096)
  (text_embedding): Embedding(23033, 384)
  (image_trs): Linear(in_features=4096, out_features=64, bias=True)
  (text_trs): Linear(in_features=384, out_features=64, bias=True)
  (softmax): Softmax(dim=-1)
  (query_common): Sequential(
    (0): Linear(in_features=64, out_features=64, bias=True)
    (1): Tanh()
    (2): Linear(in_features=64, out_features=1, bias=False)
  )
  (gate_v): Sequential(
    (0): Linear(in_features=64, out_features=64, bias=True)
    (1): Sigmoid()
  )
  (gate_t): Sequential(
    (0): Linear(in_features=64, out_features=64, bias=True)
    (1): Sigmoid()
  )
  (gate_image_prefer): Sequential(
    (0): Linear(in_features=64, out_features=64, bias=True)
    (1): Sigmoid()
  )
  (gate_text_prefer): Sequential(
    (0): Linear(in_features=64, out_features=64, bias=True)
    (1): Sigmoid()
  )
)
Trainable parameters: 107490432
Thu 08 Aug 2024 09:48:30 INFO epoch 0 training [time: 4.14s, train loss: 67.8161]
Thu 08 Aug 2024 09:48:44 INFO epoch 0 evaluating [time: 7.08s, valid_score: 0.058400]
Thu 08 Aug 2024 09:48:44 INFO valid result: 
recall@5: 0.0265    recall@10: 0.0394    recall@20: 0.0584    recall@50: 0.0947    ndcg@5: 0.0177    ndcg@10: 0.0219    ndcg@20: 0.0267    ndcg@50: 0.0339    precision@5: 0.0054    precision@10: 0.0040    precision@20: 0.0030    precision@50: 0.0019    map@5: 0.0148    map@10: 0.0165    map@20: 0.0178    map@50: 0.0190    
…
