…
The sparsity of the dataset: 99.99389670773579%
Fri 09 Aug 2024 15:29:48 INFO 
====Testing====
clothing
The number of users: 39387
Average actions of users: 1.0457511361616778
The number of items: 16803
Average actions of items: 2.451288460393977
The number of inters: 41189
The sparsity of the dataset: 99.99377640221293%
Fri 09 Aug 2024 15:29:56 INFO 

=================================


Fri 09 Aug 2024 15:29:56 INFO =========1/12: Parameters:['seed', 'learning_rate', 'beta']=(999, 0.0001, 0.01)=======
Fri 09 Aug 2024 15:29:59 INFO MVGAE(
  (experts): ProductOfExperts()
  (v_gcn): GCN(
    (MLP): Linear(in_features=4096, out_features=128, bias=True)
    (conv_embed_1): BaseModel(128, 64)
    (linear_layer1): Linear(in_features=128, out_features=64, bias=True)
    (g_layer1): Linear(in_features=64, out_features=64, bias=True)
    (conv_embed_2): BaseModel(64, 64)
    (linear_layer2): Linear(in_features=64, out_features=64, bias=True)
    (g_layer2): Linear(in_features=64, out_features=64, bias=True)
    (conv_embed_4): BaseModel(64, 64)
    (linear_layer4): Linear(in_features=64, out_features=64, bias=True)
    (g_layer4): Linear(in_features=64, out_features=64, bias=True)
    (conv_embed_5): BaseModel(64, 64)
    (linear_layer5): Linear(in_features=64, out_features=64, bias=True)
    (g_layer5): Linear(in_features=64, out_features=64, bias=True)
  )
  (t_gcn): GCN(
    (MLP): Linear(in_features=384, out_features=128, bias=True)
    (conv_embed_1): BaseModel(128, 64)
    (linear_layer1): Linear(in_features=128, out_features=64, bias=True)
    (g_layer1): Linear(in_features=64, out_features=64, bias=True)
    (conv_embed_2): BaseModel(64, 64)
    (linear_layer2): Linear(in_features=64, out_features=64, bias=True)
    (g_layer2): Linear(in_features=64, out_features=64, bias=True)
    (conv_embed_4): BaseModel(64, 64)
    (linear_layer4): Linear(in_features=64, out_features=64, bias=True)
    (g_layer4): Linear(in_features=64, out_features=64, bias=True)
    (conv_embed_5): BaseModel(64, 64)
    (linear_layer5): Linear(in_features=64, out_features=64, bias=True)
    (g_layer5): Linear(in_features=64, out_features=64, bias=True)
  )
  (c_gcn): GCN(
    (MLP): Linear(in_features=64, out_features=128, bias=True)
    (conv_embed_1): BaseModel(128, 64)
    (linear_layer1): Linear(in_features=128, out_features=64, bias=True)
    (g_layer1): Linear(in_features=64, out_features=64, bias=True)
    (conv_embed_2): BaseModel(64, 64)
    (linear_layer2): Linear(in_features=64, out_features=64, bias=True)
    (g_layer2): Linear(in_features=64, out_features=64, bias=True)
    (conv_embed_4): BaseModel(64, 64)
    (linear_layer4): Linear(in_features=64, out_features=64, bias=True)
    (g_layer4): Linear(in_features=64, out_features=64, bias=True)
    (conv_embed_5): BaseModel(64, 64)
    (linear_layer5): Linear(in_features=64, out_features=64, bias=True)
    (g_layer5): Linear(in_features=64, out_features=64, bias=True)
  )
)
Trainable parameters: 756352
Fri 09 Aug 2024 15:30:32 INFO epoch 0 training [time: 31.01s, train loss: 789365.7036]
Fri 09 Aug 2024 15:30:46 INFO epoch 0 evaluating [time: 7.08s, valid_score: 0.002500]
Fri 09 Aug 2024 15:30:46 INFO valid result: 
recall@5: 0.0002    recall@10: 0.0008    recall@20: 0.0025    recall@50: 0.0042    ndcg@5: 0.0001    ndcg@10: 0.0003    ndcg@20: 0.0007    ndcg@50: 0.0010    precision@5: 0.0000    precision@10: 0.0001    precision@20: 0.0001    precision@50: 0.0001    map@5: 0.0000    map@10: 0.0001    map@20: 0.0002    map@50: 0.0003    
…
